…
│ input_layer_5       │ (None, 224, 224,  │          0 │ -                 │
│ (InputLayer)        │ 3)                │            │                   │
├─────────────────────┼───────────────────┼────────────┼───────────────────┤
│ functional_2        │ [(None, 55, 55,   │ 14,599,824 │ input_layer_5[0]… │
│ (Functional)        │ 256), (None, 14,  │            │                   │
│                     │ 14, 728), (None,  │            │                   │
│                     │ 14, 14, 728)]     │            │                   │
├─────────────────────┼───────────────────┼────────────┼───────────────────┤
│ global_average_poo… │ (None, 256)       │          0 │ functional_2[0][… │
│ (GlobalAveragePool… │                   │            │                   │
├─────────────────────┼───────────────────┼────────────┼───────────────────┤
│ global_average_poo… │ (None, 728)       │          0 │ functional_2[0][… │
│ (GlobalAveragePool… │                   │            │                   │
├─────────────────────┼───────────────────┼────────────┼───────────────────┤
│ global_average_poo… │ (None, 728)       │          0 │ functional_2[0][… │
│ (GlobalAveragePool… │                   │            │                   │
├─────────────────────┼───────────────────┼────────────┼───────────────────┤
│ dense_21 (Dense)    │ (None, 512)       │    131,584 │ global_average_p… │
├─────────────────────┼───────────────────┼────────────┼───────────────────┤
│ dense_22 (Dense)    │ (None, 512)       │    373,248 │ global_average_p… │
├─────────────────────┼───────────────────┼────────────┼───────────────────┤
│ dense_23 (Dense)    │ (None, 512)       │    373,248 │ global_average_p… │
├─────────────────────┼───────────────────┼────────────┼───────────────────┤
│ quantum_attention   │ (None, 512)       │    525,313 │ dense_21[0][0]    │
│ (QuantumAttention)  │                   │            │                   │
├─────────────────────┼───────────────────┼────────────┼───────────────────┤
│ quantum_attention_1 │ (None, 512)       │    525,313 │ dense_22[0][0]    │
│ (QuantumAttention)  │                   │            │                   │
├─────────────────────┼───────────────────┼────────────┼───────────────────┤
│ quantum_attention_2 │ (None, 512)       │    525,313 │ dense_23[0][0]    │
│ (QuantumAttention)  │                   │            │                   │
├─────────────────────┼───────────────────┼────────────┼───────────────────┤
│ concatenate_2       │ (None, 1536)      │          0 │ quantum_attentio… │
│ (Concatenate)       │                   │            │ quantum_attentio… │
│                     │                   │            │ quantum_attentio… │
├─────────────────────┼───────────────────┼────────────┼───────────────────┤
│ dense_30 (Dense)    │ (None, 512)       │    786,944 │ concatenate_2[0]… │
├─────────────────────┼───────────────────┼────────────┼───────────────────┤
│ batch_normalizatio… │ (None, 512)       │      2,048 │ dense_30[0][0]    │
│ (BatchNormalizatio… │                   │            │                   │
├─────────────────────┼───────────────────┼────────────┼───────────────────┤
│ dropout_4 (Dropout) │ (None, 512)       │          0 │ batch_normalizat… │
├─────────────────────┼───────────────────┼────────────┼───────────────────┤
│ dense_31 (Dense)    │ (None, 128)       │     65,664 │ dropout_4[0][0]   │
├─────────────────────┼───────────────────┼────────────┼───────────────────┤
│ dropout_5 (Dropout) │ (None, 128)       │          0 │ dense_31[0][0]    │
├─────────────────────┼───────────────────┼────────────┼───────────────────┤
│ dense_32 (Dense)    │ (None, 2)         │        258 │ dropout_5[0][0]   │
└─────────────────────┴───────────────────┴────────────┴───────────────────┘
 Total params: 17,908,757 (68.32 MB)
 Trainable params: 17,864,469 (68.15 MB)
 Non-trainable params: 44,288 (173.00 KB)

