…
│ input_layer_7       │ (None, 224, 224,  │          0 │ -                 │
│ (InputLayer)        │ 3)                │            │                   │
├─────────────────────┼───────────────────┼────────────┼───────────────────┤
│ functional_3        │ [(None, 55, 55,   │ 14,599,824 │ input_layer_7[0]… │
│ (Functional)        │ 256), (None, 14,  │            │                   │
│                     │ 14, 728), (None,  │            │                   │
│                     │ 14, 14, 728)]     │            │                   │
├─────────────────────┼───────────────────┼────────────┼───────────────────┤
│ global_average_poo… │ (None, 256)       │          0 │ functional_3[0][… │
│ (GlobalAveragePool… │                   │            │                   │
├─────────────────────┼───────────────────┼────────────┼───────────────────┤
│ global_average_poo… │ (None, 728)       │          0 │ functional_3[0][… │
│ (GlobalAveragePool… │                   │            │                   │
├─────────────────────┼───────────────────┼────────────┼───────────────────┤
│ global_average_poo… │ (None, 728)       │          0 │ functional_3[0][… │
│ (GlobalAveragePool… │                   │            │                   │
├─────────────────────┼───────────────────┼────────────┼───────────────────┤
│ dense_33 (Dense)    │ (None, 512)       │    131,584 │ global_average_p… │
├─────────────────────┼───────────────────┼────────────┼───────────────────┤
│ dense_34 (Dense)    │ (None, 512)       │    373,248 │ global_average_p… │
├─────────────────────┼───────────────────┼────────────┼───────────────────┤
│ dense_35 (Dense)    │ (None, 512)       │    373,248 │ global_average_p… │
├─────────────────────┼───────────────────┼────────────┼───────────────────┤
│ quantum_entangleme… │ (None, 512)       │  1,574,913 │ dense_33[0][0],   │
│ (QuantumEntangleme… │                   │            │ dense_34[0][0],   │
│                     │                   │            │ dense_35[0][0]    │
├─────────────────────┼───────────────────┼────────────┼───────────────────┤
│ dense_40 (Dense)    │ (None, 512)       │    262,656 │ quantum_entangle… │
├─────────────────────┼───────────────────┼────────────┼───────────────────┤
│ batch_normalizatio… │ (None, 512)       │      2,048 │ dense_40[0][0]    │
│ (BatchNormalizatio… │                   │            │                   │
├─────────────────────┼───────────────────┼────────────┼───────────────────┤
│ dropout_6 (Dropout) │ (None, 512)       │          0 │ batch_normalizat… │
├─────────────────────┼───────────────────┼────────────┼───────────────────┤
│ dense_41 (Dense)    │ (None, 128)       │     65,664 │ dropout_6[0][0]   │
├─────────────────────┼───────────────────┼────────────┼───────────────────┤
│ dropout_7 (Dropout) │ (None, 128)       │          0 │ dense_41[0][0]    │
├─────────────────────┼───────────────────┼────────────┼───────────────────┤
│ dense_42 (Dense)    │ (None, 2)         │        258 │ dropout_7[0][0]   │
└─────────────────────┴───────────────────┴────────────┴───────────────────┘
 Total params: 17,383,443 (66.31 MB)
 Trainable params: 17,339,155 (66.14 MB)
 Non-trainable params: 44,288 (173.00 KB)

