…
│ input_layer_3       │ (None, 224, 224,  │          0 │ -                 │
│ (InputLayer)        │ 3)                │            │                   │
├─────────────────────┼───────────────────┼────────────┼───────────────────┤
│ functional_1        │ [(None, 55, 55,   │ 14,599,824 │ input_layer_3[0]… │
│ (Functional)        │ 256), (None, 14,  │            │                   │
│                     │ 14, 728), (None,  │            │                   │
│                     │ 14, 14, 728)]     │            │                   │
├─────────────────────┼───────────────────┼────────────┼───────────────────┤
│ global_average_poo… │ (None, 256)       │          0 │ functional_1[0][… │
│ (GlobalAveragePool… │                   │            │                   │
├─────────────────────┼───────────────────┼────────────┼───────────────────┤
│ global_average_poo… │ (None, 728)       │          0 │ functional_1[0][… │
│ (GlobalAveragePool… │                   │            │                   │
├─────────────────────┼───────────────────┼────────────┼───────────────────┤
│ global_average_poo… │ (None, 728)       │          0 │ functional_1[0][… │
│ (GlobalAveragePool… │                   │            │                   │
├─────────────────────┼───────────────────┼────────────┼───────────────────┤
│ dense_9 (Dense)     │ (None, 512)       │    131,584 │ global_average_p… │
├─────────────────────┼───────────────────┼────────────┼───────────────────┤
│ dense_10 (Dense)    │ (None, 512)       │    373,248 │ global_average_p… │
├─────────────────────┼───────────────────┼────────────┼───────────────────┤
│ dense_11 (Dense)    │ (None, 512)       │    373,248 │ global_average_p… │
├─────────────────────┼───────────────────┼────────────┼───────────────────┤
│ quantum_feature_fu… │ (None, 512)       │    525,313 │ dense_9[0][0]     │
│ (QuantumFeatureFus… │                   │            │                   │
├─────────────────────┼───────────────────┼────────────┼───────────────────┤
│ quantum_feature_fu… │ (None, 512)       │    525,313 │ dense_10[0][0]    │
│ (QuantumFeatureFus… │                   │            │                   │
├─────────────────────┼───────────────────┼────────────┼───────────────────┤
│ quantum_feature_fu… │ (None, 512)       │    525,313 │ dense_11[0][0]    │
│ (QuantumFeatureFus… │                   │            │                   │
├─────────────────────┼───────────────────┼────────────┼───────────────────┤
│ concatenate_1       │ (None, 1536)      │          0 │ quantum_feature_… │
│ (Concatenate)       │                   │            │ quantum_feature_… │
│                     │                   │            │ quantum_feature_… │
├─────────────────────┼───────────────────┼────────────┼───────────────────┤
│ dense_18 (Dense)    │ (None, 512)       │    786,944 │ concatenate_1[0]… │
├─────────────────────┼───────────────────┼────────────┼───────────────────┤
│ batch_normalizatio… │ (None, 512)       │      2,048 │ dense_18[0][0]    │
│ (BatchNormalizatio… │                   │            │                   │
├─────────────────────┼───────────────────┼────────────┼───────────────────┤
│ dropout_2 (Dropout) │ (None, 512)       │          0 │ batch_normalizat… │
├─────────────────────┼───────────────────┼────────────┼───────────────────┤
│ dense_19 (Dense)    │ (None, 128)       │     65,664 │ dropout_2[0][0]   │
├─────────────────────┼───────────────────┼────────────┼───────────────────┤
│ dropout_3 (Dropout) │ (None, 128)       │          0 │ dense_19[0][0]    │
├─────────────────────┼───────────────────┼────────────┼───────────────────┤
│ dense_20 (Dense)    │ (None, 2)         │        258 │ dropout_3[0][0]   │
└─────────────────────┴───────────────────┴────────────┴───────────────────┘
 Total params: 17,908,757 (68.32 MB)
 Trainable params: 17,864,469 (68.15 MB)
 Non-trainable params: 44,288 (173.00 KB)

