…
│ input_layer_11      │ (None, 224, 224,  │          0 │ -                 │
│ (InputLayer)        │ 3)                │            │                   │
├─────────────────────┼───────────────────┼────────────┼───────────────────┤
│ functional_5        │ [(None, 55, 55,   │ 14,599,824 │ input_layer_11[0… │
│ (Functional)        │ 256), (None, 14,  │            │                   │
│                     │ 14, 728), (None,  │            │                   │
│                     │ 14, 14, 728)]     │            │                   │
├─────────────────────┼───────────────────┼────────────┼───────────────────┤
│ global_average_poo… │ (None, 256)       │          0 │ functional_5[0][… │
│ (GlobalAveragePool… │                   │            │                   │
├─────────────────────┼───────────────────┼────────────┼───────────────────┤
│ global_average_poo… │ (None, 728)       │          0 │ functional_5[0][… │
│ (GlobalAveragePool… │                   │            │                   │
├─────────────────────┼───────────────────┼────────────┼───────────────────┤
│ global_average_poo… │ (None, 728)       │          0 │ functional_5[0][… │
│ (GlobalAveragePool… │                   │            │                   │
├─────────────────────┼───────────────────┼────────────┼───────────────────┤
│ dense_52 (Dense)    │ (None, 512)       │    131,584 │ global_average_p… │
├─────────────────────┼───────────────────┼────────────┼───────────────────┤
│ dense_53 (Dense)    │ (None, 512)       │    373,248 │ global_average_p… │
├─────────────────────┼───────────────────┼────────────┼───────────────────┤
│ dense_54 (Dense)    │ (None, 512)       │    373,248 │ global_average_p… │
├─────────────────────┼───────────────────┼────────────┼───────────────────┤
│ quantum_phase_enco… │ (None, 512)       │    262,657 │ dense_52[0][0]    │
│ (QuantumPhaseEncod… │                   │            │                   │
├─────────────────────┼───────────────────┼────────────┼───────────────────┤
│ quantum_phase_enco… │ (None, 512)       │    262,657 │ dense_53[0][0]    │
│ (QuantumPhaseEncod… │                   │            │                   │
├─────────────────────┼───────────────────┼────────────┼───────────────────┤
│ quantum_phase_enco… │ (None, 512)       │    262,657 │ dense_54[0][0]    │
│ (QuantumPhaseEncod… │                   │            │                   │
├─────────────────────┼───────────────────┼────────────┼───────────────────┤
│ concatenate_4       │ (None, 1536)      │          0 │ quantum_phase_en… │
│ (Concatenate)       │                   │            │ quantum_phase_en… │
│                     │                   │            │ quantum_phase_en… │
├─────────────────────┼───────────────────┼────────────┼───────────────────┤
│ dense_58 (Dense)    │ (None, 512)       │    786,944 │ concatenate_4[0]… │
├─────────────────────┼───────────────────┼────────────┼───────────────────┤
│ batch_normalizatio… │ (None, 512)       │      2,048 │ dense_58[0][0]    │
│ (BatchNormalizatio… │                   │            │                   │
├─────────────────────┼───────────────────┼────────────┼───────────────────┤
│ dropout_10          │ (None, 512)       │          0 │ batch_normalizat… │
│ (Dropout)           │                   │            │                   │
├─────────────────────┼───────────────────┼────────────┼───────────────────┤
│ dense_59 (Dense)    │ (None, 128)       │     65,664 │ dropout_10[0][0]  │
├─────────────────────┼───────────────────┼────────────┼───────────────────┤
│ dropout_11          │ (None, 128)       │          0 │ dense_59[0][0]    │
│ (Dropout)           │                   │            │                   │
├─────────────────────┼───────────────────┼────────────┼───────────────────┤
│ dense_60 (Dense)    │ (None, 2)         │        258 │ dropout_11[0][0]  │
└─────────────────────┴───────────────────┴────────────┴───────────────────┘
 Total params: 17,120,789 (65.31 MB)
 Trainable params: 17,076,501 (65.14 MB)
 Non-trainable params: 44,288 (173.00 KB)

